Assets/brain/GhostBehavior.onnx (onnx, 97990 bytes, 6 tensors)

network_body._body_endoder.seq_layers.0.weight f4 [128, 53]
0	0x3d2fa3fa	0.04288099
1	0xbd9b75a9	-0.07590801
2	0x3c15ecb2	0.009150671
3	0x3cf2154d	0.029551173
4	0x3dbb5576	0.0914716
5	0xbd1f62ea	-0.03891269
6	0x3da426c1	0.08015204
7	0x3e026d4e	0.12737009
8	0x3e3b79de	0.18308207
9	0x3d95d5b7	0.073161535
10	0x3ddecd06	0.10878949
11	0xbde23e88	-0.11047083
12	0xbe331f31	-0.17492367
13	0x3d559804	0.052146927
14	0x3e3fa9c8	0.1871711
15	0xbe56f775	-0.20992835
16	0xbe28d7b9	-0.16488542
17	0x3e5be71f	0.21474884
18	0xbe16be0a	-0.14720932
19	0xbdb8f6c7	-0.09031444
20	0x3e1ef42c	0.15522832
21	0xbd25ab5d	-0.040446628
22	0xbcdd5e0f	-0.02702239
23	0xbdc32ed1	-0.09530414
24	0x3d4a6278	0.049410313
25	0x3d12e93a	0.035866953
26	0x3ceafc46	0.028684746
27	0xbe54c077	-0.20776545
28	0xbe1a96da	-0.15096608
29	0x3e617ac8	0.22019494
30	0x3e3bf91c	0.18356746
31	0xbe93e1c6	-0.2888319
32	0x3e9d9319	0.3077629
33	0x3d53c72d	0.05170362
34	0xbe03d684	-0.128748
35	0x3e0f2d57	0.1398214
36	0xbe18aeeb	-0.14910476
37	0xbe6dcfc2	-0.23223785
38	0x3e0b69ef	0.13614629
39	0x3d4dfbd6	0.050288998
40	0xbbe2a54d	-0.006916678
41	0xbd8d4d95	-0.06899563
42	0x3e19b29f	0.15009545
43	0xbd4f7185	-0.05064537
44	0xbd0f3362	-0.03496111
45	0x3e0fbc62	0.14036706
46	0x3e374590	0.1789763
47	0x3e6f8fee	0.23394749
48	0xbe078359	-0.13233699
49	0xbd5c705b	-0.053818088
50	0x3dc21b92	0.09477915
51	0xbe029d80	-0.12755394
52	0x3e2cb653	0.16866426
53	0xbc15ed23	-0.009150776
54	0x3d65507b	0.055984955
55	0xbdcee1cd	-0.10101662
56	0xbe5272ac	-0.20551556
57	0x3e9c9b01	0.3058701
58	0xbd9a7c9c	-0.075432986
59	0x3e5ba398	0.21449125
60	0x3e2a0109	0.16601957
61	0x3e31bcd4	0.17357188
62	0xbd24a2a6	-0.040194176
63	0x3e062d01	0.13103105
64	0xbc904589	-0.017611282
65	0x3e44e896	0.1922935
66	0xbe24cb5a	-0.16093197
67	0xbbe2638f	-0.006908841
68	0xbe934dc2	-0.28770262
69	0xbd98049c	-0.07422754
70	0xbea332ce	-0.31874698
71	0xbb1c3cc0	-0.002383992
72	0xbd8d81cd	-0.06909523
73	0x3d4a00db	0.049317222
74	0xbd3c0238	-0.045900553
75	0xbdd45943	-0.10368588
76	0x3d63f165	0.055650134
77	0xbd4415a9	-0.04787222
78	0x3ddac058	0.10681218
79	0x3d9172a7	0.07101946
80	0xbe033718	-0.12813985
81	0xbe04a831	-0.12954785
82	0xbd634197	-0.055482473
83	0x3e2a575d	0.16634889
84	0xbe9f9334	-0.31166995
85	0xbd9c2930	-0.076250434
86	0xbd5681a7	-0.05236974
87	0xbd14ef09	-0.036360774
88	0x3d48cace	0.049021535
89	0x3de301ca	0.110843256
90	0xbd2e1c81	-0.042507652
91	0x3c65d4d8	0.014027797
92	0x3d096614	0.033544615
93	0x3d31c198	0.043397516
94	0xbd8b89da	-0.068134025
95	0x3d3ac995	0.0456024
96	0x3db4f50f	0.08835804
97	0x3e1186e5	0.14211614
98	0xbdda6218	-0.10663241
99	0x3e39838d	0.18116589
100	0x3e111d19	0.14171256
101	0xbd0c48d7	-0.034249153
102	0x3e2059f1	0.1565931
103	0xbdf6d05d	-0.12051461
104	0x3e4e3d82	0.20140651
105	0x3d91afdb	0.0711362
106	0xbe051aab	-0.12998454
107	0x3e558219	0.2085041
108	0x3d1d3051	0.038376156
109	0x3e1e1c8c	0.15440577
110	0x3d05b0df	0.03263938
111	0x3d11d17a	0.035600163
112	0x3df98370	0.12183273
113	0x3d9f287a	0.07771392
114	0xbcc5b280	-0.024132967
115	0x3de78919	0.11305446
116	0x3d9c0eec	0.076200336
117	0xbe09fc3d	-0.13475128
118	0xbe23f2f8	-0.16010654
119	0xbbdc2617	-0.006718408
120	0x3ce21a9d	0.02760058
121	0x3e48d466	0.19612274
122	0xbe48b542	-0.19600394
123	0xbe032939	-0.12808694
124	0x3dfd11c3	0.123569034
125	0xbdec5029	-0.11538727
126	0x3db67b80	0.089102745
127	0xbe28a74b	-0.16470067
128	0xbdfcabfd	-0.12337492
129	0xbb4ef8c8	-0.003158139
130	0x3d138c7e	0.036022656
131	0xbe3a0105	-0.18164451
132	0xbd3fc781	-0.04682112
133	0xbdcbcb4a	-0.09950884
134	0x3d883f3f	0.06652688
135	0x3c981302	0.018563751
136	0xbd3c991c	-0.046044454
137	0x3e9863c5	0.29763618
138	0xbd5031e8	-0.050828844
139	0xbd58b7a8	-0.052909523
140	0x3e3a28ee	0.18179676
141	0xbd676d65	-0.05650081
142	0x3e6e2676	0.23256859
143	0x3d8990db	0.06717082
144	0xbd979989	-0.074023314
145	0x3d096a9e	0.033548944
146	0xbdcd8fa6	-0.100371644
147	0xbc31c82a	-0.0108509455
148	0xbdb9915b	-0.090609275
149	0xbdaa1e61	-0.083065756
150	0xbe0dea49	-0.13858904
151	0x3d3a792d	0.04552572
152	0x3e093eb5	0.13402827
153	0xbcf3fbc0	-0.02978313
154	0x3e243520	0.1603589
155	0x3d1df2f7	0.038561787
156	0x3d84c871	0.06483544
157	0xbe03a01c	-0.12854046
158	0xbd73e11d	-0.059540857
159	0xbe6e5aed	-0.23276873
160	0xbd221ecd	-0.039580155
161	0xbd66c0d6	-0.056336246
162	0x3e1129c7	0.14176093
163	0xbb9d1e81	-0.004794896
164	0xbd2f7c4a	-0.04284314
165	0xbe3ebcb0	-0.18626666
166	0x3d018a1e	0.03162586
167	0x3dba2760	0.090895414
168	0x3d4e306d	0.05033915
169	0xbe0fc10b	-0.14038484
170	0x3ab8502c	0.0014061979
171	0xbc5f7735	-0.013639261
172	0x3dcbe2df	0.099553816
173	0x3e048446	0.12941083
174	0xbdad99a5	-0.08476571
175	0xbc098885	-0.008394365
176	0xbe3f8796	-0.18704066
177	0x3c2ec204	0.010666374
178	0x3db03ca5	0.08605317
179	0xbd5a799c	-0.053338632
180	0xbdccc255	-0.099980034
181	0x3d38124a	0.044939317
182	0xbe4d2057	-0.20031868
183	0x3e440daf	0.19145845
184	0x3e80e3fa	0.25173932
185	0xbd6a767e	-0.05724191
186	0x3cc265d0	0.023730189
187	0xbe3c0f82	-0.18365291
188	0x3c213f19	0.009841704
189	0x3deb73f3	0.11496725
190	0x3d991e79	0.07476515
191	0x3e329db5	0.17442973
192	0xbde708f9	-0.11281008
193	0xbd8c2d16	-0.06844537
194	0xbc681183	-0.014164331
195	0x3c714179	0.014725083
196	0x3c0c05a5	0.008546268
197	0xbd89f8f3	-0.067369364
198	0xbe19f47b	-0.15034668
199	0x3d7159d8	0.058923572
200	0xbd6d1930	-0.05788535
201	0xbd23c983	-0.0399871
202	0xbd18a148	-0.037263185
203	0xbc18612d	-0.009300512
204	0x3e2cc8ba	0.16873446
205	0x3d555e81	0.05209208
206	0xbd5b8173	-0.05359025
207	0xbc86f24d	-0.01647296
208	0xbbf49be6	-0.0074648736
209	0x3da1ddfd	0.07903669
210	0x3d82e1a6	0.06390695
211	0xbe68a45d	-0.2271895
212	0xbd0c7550	-0.034291565
213	0x3d45ead6	0.04831966
214	0xbddeed2c	-0.10885081
215	0x3e1d7a36	0.15378651
216	0x3d6934b8	0.056935042
217	0xbe195f5f	-0.14977787
218	0xbe17884f	-0.14798091
219	0xbe3590cd	-0.17731018
220	0x3c84730b	0.016168138
221	0x3e598af4	0.21244413
222	0x3e04af14	0.12957412
223	0xbe585bce	-0.2112877
224	0xbd90931d	-0.0705931
225	0x3cb598b7	0.022167547
226	0xbd3f2545	-0.046666402
227	0x3d25f104	0.040513054
228	0x3da04cba	0.078271344
229	0xbb8bcbc1	-0.0042662327
230	0xbc7883be	-0.015168129
231	0x3c290070	0.010315046
232	0x3d36b99c	0.044610605
233	0xbda82918	-0.08210963
234	0xbd4ecdf3	-0.050489377
235	0xbe8e7b72	-0.27828556
236	0x3ca656b3	0.020305013
237	0x3e29b5c8	0.1657325
238	0xbd6e3c3d	-0.058162916
239	0x3c944898	0.018101022
240	0x3ea77174	0.32703745
241	0xbe9c2c20	-0.30502415
242	0x3bc1da87	0.005915943
243	0x3d0258d1	0.031822983
244	0x3e73bf36	0.2380341
245	0x3d08b31b	0.033373933
246	0x3ca5393a	0.02016889
247	0x3d50fac6	0.051020406
248	0xbe1cca78	-0.1531161
249	0x3d8a5680	0.0675478
250	0x3e176cce	0.147876
251	0x3d8b8a5b	0.068134986
252	0x3d631806	0.055442832
253	0xbe4079bf	-0.18796442
254	0xbb92452b	-0.004463812
255	0x3e25e005	0.16198738

network_body._body_endoder.seq_layers.0.bias f4 [128]
0	0x39c2d928	0.00037164357
1	0x3a650a02	0.0008737148
2	0x39d7175d	0.00041025403
3	0xb90813b2	-0.00012977308
4	0x3984c248	0.00025321753
5	0xb9c39028	-0.00037300703
6	0x39278334	0.00015975238
7	0xb91f4b82	-0.0001519155
8	0x399d796d	0.00030035843
9	0x3a78a5ec	0.00094851735
10	0x396d10c3	0.00022608326
11	0xba63b20c	-0.0008685894
12	0xb8efee28	-0.00011440768
13	0x39829d4d	0.0002491273
14	0xba43028c	-0.0007439039
15	0x39ded7eb	0.0004250401
16	0xb907cae9	-0.00012950193
17	0x39a7967e	0.00031964848
18	0x39207573	0.00015302542
19	0xba3527f9	-0.00069105584
20	0xba38a44f	-0.0007043527
21	0x39c5bf17	0.0003771714
22	0x395fcc16	0.00021342965
23	0x3a4a894f	0.0007726149
24	0x3a95f88c	0.0011441871
25	0x38fc5933	0.00012032911
26	0x3a66ec69	0.00088090316
27	0xbacb8bda	-0.001552935
28	0xb94909fd	-0.00019172575
29	0x385c2d4e	5.249428e-05
30	0x38b786d4	8.751234e-05
31	0xba3a086e	-0.0007096593
32	0x39afe25f	0.0003354726
33	0xb9eacb0d	-0.00044783243
34	0x391f1be5	0.00015173813
35	0xb98b9191	-0.000266206
36	0x38a9314b	8.0677295e-05
37	0x3a2e784b	0.00066554983
38	0xba7addf9	-0.00095698197
39	0xba5b2763	-0.0008360056
40	0x3a06a4ff	0.00051362807
41	0x39072177	0.0001288707
42	0x3994d43e	0.00028386893
43	0x39d0296e	0.0003970372
44	0x3a616060	0.000859743
45	0x39c34186	0.00037242117
46	0xb997bb68	-0.00028940593
47	0x39052e62	0.00012701147
48	0xb8d75d85	-0.00010269418
49	0xb97fe317	-0.00024403293
50	0x3a68ad3d	0.0008875912
51	0x38145e6b	3.5373883e-05
52	0x398878df	0.00026029997
53	0x397c9cfe	0.00024091077
54	0x3a4ed7fe	0.0007890462
55	0xba201061	-0.0006105956
56	0x3a4f97e2	0.00079190556
57	0xb7c02b54	-2.290836e-05
58	0x37acd678	2.0603868e-05
59	0x38861a30	6.394496e-05
60	0xb8f0dd2d	-0.00011485289
61	0x3a1520af	0.0005688769
62	0xba2d4850	-0.00066102017
63	0x391ddd9e	0.00015055246
64	0x3a656ef2	0.0008752189
65	0x39d6b4a3	0.00040951846
66	0xb9d2fec5	-0.0004024414
67	0xb95bc8dd	-0.00020960295
68	0x39826b4e	0.0002487548
69	0xba38eb5b	-0.00070541137
70	0x3a618456	0.00086027884
71	0x3a4c78eb	0.00078000006
72	0x38c116ef	9.207229e-05
73	0x39c25eee	0.00037073292
74	0x3a977a24	0.0011556786
75	0x3a63528e	0.00086716644
76	0xb94db302	-0.00019617009
77	0xb93ce408	-0.00018014025
78	0xb97406b6	-0.00023272153
79	0xb9025a29	-0.00012431353
80	0x382d1d7b	4.127387e-05
81	0xb9c4d84d	-0.0003754519
82	0x39575708	0.0002053642
83	0x3a30072d	0.00067149365
84	0xba0b490a	-0.0005313313
85	0x3a15c19f	0.0005712751
86	0x3a187a4e	0.00058165647
87	0x3aae10c3	0.0013280142
88	0xba067a5c	-0.00051299273
89	0x3a6a383f	0.0008934773
90	0x3a73a157	0.0009293756
91	0x3a45b61b	0.00075420894
92	0xb5375bed	-6.830658e-07
93	0x3a4252be	0.0007412842
94	0xba110f68	-0.0005533607
95	0xba48ac46	-0.0007655065
96	0xba0bb876	-0.0005329916
97	0x3a39e0bd	0.00070906786
98	0x3a4a6e5b	0.0007722133
99	0x3a90d6fb	0.0011050397
100	0x39344238	0.00017190806
101	0xba5ac746	-0.0008345734
102	0x3801d152	3.095094e-05
103	0xb8992556	-7.302563e-05
104	0x3a362327	0.0006947987
105	0xba3cd543	-0.00072034093
106	0xb7785d66	-1.4803698e-05
107	0xb74aedac	-1.20954755e-05
108	0x38814617	6.1642546e-05
109	0x397b9cdf	0.00023995664
110	0x3779e75f	1.4895427e-05
111	0xba881fed	-0.0010385491
112	0xb9511e25	-0.00019943023
113	0xba5940a2	-0.0008287524
114	0x38e5fd26	0.000109667235
115	0xb9b6c09d	-0.00034857253
116	0x3a7cd0d8	0.0009644157
117	0xb989b323	-0.00026264144
118	0xb9b131a9	-0.0003379707
119	0x3a3f2e3d	0.0007292962
120	0xba1466f0	-0.0005661091
121	0xba38365f	-0.0007027145
122	0xb9dc17ce	-0.00041979406
123	0x39faa077	0.0004780327
124	0xb873e116	-5.8145342e-05
125	0xb8caa315	-9.662487e-05
126	0xb9c659df	-0.00037832462
127	0xb93e6a4b	-0.00018159409

network_body._body_endoder.seq_layers.2.weight f4 [128, 128]
0	0x3c838ddb	0.016058853
1	0xbc4664d2	-0.012108998
2	0xbd27abcd	-0.040935326
3	0x3b301a0e	0.0026870999
4	0x3df48dc9	0.11941106
5	0xbc8761ea	-0.016526181
6	0x3b216ddf	0.0024632139
7	0x3dfc1eb9	0.123105474
8	0x3d3d9017	0.046279993
9	0x3e22a06a	0.15881506
10	0xbe0022dd	-0.125133
11	0xbd19970d	-0.03749757
12	0x3da1776c	0.07884106
13	0x3d8ac428	0.06775695
14	0xbd6b93d2	-0.05751402
15	0x3ddac2bd	0.10681675
16	0xbc9e2053	-0.019302523
17	0xbe030184	-0.12793547
18	0x3d899568	0.0671795
19	0x3e05c9d8	0.13065279
20	0x3d8230d0	0.063569665
21	0xbdb4d8b4	-0.08830395
22	0xbdc35108	-0.0953694
23	0xbd53757d	-0.051625717
24	0xbd9a44c3	-0.075326465
25	0x3dd01035	0.10159341
26	0xbd031fb2	-0.03201265
27	0x3d0f73c0	0.035022497
28	0x3d2d991a	0.042382337
29	0x3b75b3a4	0.0037491107
30	0x3ceeb230	0.0291377
31	0x3c3d7b12	0.011564987
32	0x3c6dfb23	0.014525208
33	0xbda6dd04	-0.08147624
34	0x3cbe9d18	0.023268268
35	0x3dd454b0	0.10367715
36	0x3e87be31	0.26512292
37	0xbda5c9c1	-0.08095122
38	0x3c1468b0	0.009058163
39	0x3e0498c2	0.12948897
40	0x3e05674a	0.13027683
41	0xbd97118d	-0.073763944
42	0x3b4af951	0.0030971358
43	0x3d8f1ed5	0.069883026
44	0xbcf492d0	-0.029855162
45	0xbd2824db	-0.041050773
46	0x3e4610a3	0.19342284
47	0xbcec4a62	-0.028844062
48	0xbddb79d8	-0.10716599
49	0x3d8c573d	0.06852577
50	0x3cab7085	0.020927677
51	0x3d3b13d3	0.045673203
52	0x3c469621	0.012120754
53	0x3dc2f611	0.0951959
54	0xbda9f704	-0.082990676
55	0xbd02cd45	-0.03193404
56	0xbccf3466	-0.02529354
57	0x3d823a9f	0.06358837
58	0x3e161a3f	0.1465845
59	0x3d1dcd98	0.038526148
60	0xbd0c4e85	-0.03425457
61	0x3ca3e7c1	0.02000797
62	0xbc0c709e	-0.008571772
63	0x3c837115	0.016045133
64	0xbdabe023	-0.0839236
65	0xbd816eef	-0.06319987
66	0x3d0d01e0	0.034425616
67	0x3cc5f73a	0.024165738
68	0xbb552edf	-0.0032529158
69	0xbda58880	-0.08082676
70	0xbdb9ad2c	-0.09066233
71	0x3d9cc03b	0.076538526
72	0x3cc2d042	0.023780946
73	0xbcf609ee	-0.030034032
74	0x3da22ed9	0.07919092
75	0x3e02b5cc	0.12764663
76	0x3c3570e7	0.011074281
77	0xbd90908f	-0.07058822
78	0x3e016784	0.12637144
79	0x3d92cab7	0.07167571
80	0x3d94ff77	0.072752886
81	0x3d88df67	0.066832356
82	0x3e4151fe	0.18878934
83	0xbd8ba5b0	-0.06818712
84	0xbc78f7c2	-0.015195789
85	0xbe26b9f4	-0.16281873
86	0xbd205722	-0.039145596
87	0xbdecf461	-0.11570049
88	0x3cc619ce	0.024182227
89	0xbd51d52e	-0.051228695
90	0x3d90b371	0.07065476
91	0xbd80d803	-0.06291201
92	0x3cf78eda	0.030219484
93	0xbc01a474	-0.007912744
94	0x3d7adaeb	0.061243933
95	0xbd25378e	-0.040336184
96	0xbdacdfbf	-0.08441114
97	0xbc67a1c0	-0.014137685
98	0x3c723309	0.014782676
99	0xbca245c5	-0.01980866
100	0x3d43cbe0	0.047801852
101	0x3d60f738	0.054923266
102	0xbbce60d4	-0.006298164
103	0x3dc2a3ff	0.09503936
104	0x3e285f7f	0.16442679
105	0xbd9d5880	-0.07682896
106	0x3cbe4170	0.023224562
107	0x3c3d06d4	0.0115372725
108	0xbd00f19b	-0.031480413
109	0xbc81c23d	-0.01583969
110	0x3d8bdf17	0.068296604
111	0x3e1a7aee	0.15085956
112	0xbd50356b	-0.050832193
113	0xbbb21bc5	-0.0054354393
114	0x3e14fd05	0.14549644
115	0x3dfd3e86	0.12365441
116	0x3d977b47	0.0739656
117	0x3da1c8c3	0.078996204
118	0xbc89d58e	-0.016825464
119	0x3e0d03cd	0.13770981
120	0xbc08e653	-0.008355695
121	0x3cea225e	0.02858084
122	0x3dc81cd7	0.09771126
123	0xbd3ced49	-0.04612473
124	0x3c95aeef	0.018271891
125	0x3d0a47e0	0.03375995
126	0xbd10b090	-0.035324633
127	0xbdcaa5a7	-0.09894877
128	0x3cc1e55c	0.023668937
129	0x3db1f831	0.08689917
130	0xbd8b2901	-0.0679493
131	0xbce0d74b	-0.02744641
132	0x3e494986	0.19656953
133	0x3c9934f7	0.018702013
134	0xbd94ded7	-0.07269066
135	0xbd4a8979	-0.04944751
136	0x3e6c8e36	0.23101124
137	0x3d570f58	0.052504867
138	0x3e0de2e2	0.1385608
139	0x3ddd1271	0.10794533
140	0xbd011f98	-0.03152427
141	0xbcbebffc	-0.023284905
142	0xbdb91c8e	-0.090386495
143	0xbd51734c	-0.051135346
144	0x3da5610e	0.08075152
145	0xbe09b06f	-0.1344621
146	0x3e05269c	0.1300301
147	0xbded2b99	-0.11580581
148	0xbe251530	-0.16121364
149	0xbd8b1568	-0.06791192
150	0x3d84603a	0.06463666
151	0x3cb985e2	0.022646848
152	0x3daa5b97	0.083182506
153	0x3d3e6328	0.04648128
154	0x3d9adbd7	0.075614624
155	0x3d4b33e4	0.049610034
156	0xbc81851e	-0.015810546
157	0xbd75ba96	-0.059992395
158	0xbd21421a	-0.03936968
159	0x3de7865b	0.11304923
160	0x3d500b87	0.050792243
161	0x3df10a5c	0.11769554
162	0xbd9fdb6c	-0.07805523
163	0xbbcb2273	-0.006199175
164	0xbd0604e9	-0.032719526
165	0x3dc6afc9	0.09701497
166	0xbe248640	-0.16066837
167	0x3df49054	0.11941591
168	0xbd4d5aaf	-0.05013531
169	0xbdb75e37	-0.08953517
170	0x3dd9d38b	0.10636052
171	0xbe08f6e2	-0.13375428
172	0x3c83c62e	0.01608571
173	0x3d98e854	0.07466188
174	0x3bb86522	0.0056272903
175	0xbdd58452	-0.10425629
176	0x3d286374	0.04111047
177	0xbdc1f56d	-0.094706394
178	0x3de5dcf7	0.11223786
179	0x3cc13a74	0.023587443
180	0x3d389a9c	0.045069322
181	0x3e2b5aea	0.167339
182	0xbe2aec46	-0.16691694
183	0x3ccfe0cd	0.025375748
184	0x3aa44e13	0.0012535475
185	0xbbf15534	-0.0073648933
186	0xbe023cde	-0.12718531
187	0x3c5d4294	0.013504643
188	0xbdc05199	-0.093905635
189	0xbd5fc93f	-0.054635283
190	0xbd8c0090	-0.06836045
191	0xbe01e10f	-0.1268351
192	0x3d2878da	0.041130878
193	0x3d0d4ead	0.03449886
194	0xbdc24689	-0.0948611
195	0x3d0da620	0.034582257
196	0x3d816f8b	0.06320103
197	0xbe03f99d	-0.12888189
198	0xbc909a79	-0.017651783
199	0x3d05b2eb	0.032641333
200	0x3d34d9fb	0.044153195
201	0xbdb1ca41	-0.08681155
202	0xbaff244d	-0.0019465775
203	0x3cf03f97	0.029327197
204	0xbe1ce3c9	-0.15321268
205	0x3e1c8238	0.1528405
206	0x3caaafe0	0.020835817
207	0xbe2ebfb5	-0.17065318
208	0xbe41d49b	-0.18928759
209	0xbd811f22	-0.06304766
210	0x3cb187b0	0.021671146
211	0x3e027665	0.12740476
212	0x3cfdd2fb	0.030984392
213	0x3dcdcf1e	0.1004927
214	0x3d11a7f7	0.035560574
215	0xbe089b78	-0.13340557
216	0xbc3cd43d	-0.011525211
217	0x3de29ee4	0.11065462
218	0x3d81a9dd	0.06331227
219	0xbcbc5c41	-0.022993209
220	0xbdeeb46d	-0.11655507
221	0xbd39aee3	-0.0453328
222	0xbe43b1a9	-0.1911074
223	0xbc0cf85a	-0.0086041335
224	0x3e0b8495	0.13624795
225	0x3d6772c7	0.056505945
226	0xbc4d5406	-0.01253224
227	0xbccdc60b	-0.025118848
228	0x3e03c56d	0.1286828
229	0xbd350014	-0.044189528
230	0x3e0fa90f	0.14029334
231	0xbc7a3005	-0.015270238
232	0xbcdc168f	-0.026866226
233	0xbde53d21	-0.111933
234	0xbe0a3089	-0.13495077
235	0xbe21ce87	-0.1580144
236	0x3dff9d73	0.12481203
237	0x3dcf9770	0.10136306
238	0xbcb416da	-0.021983553
239	0xbd341b41	-0.043971304
240	0xbe64d545	-0.22346981
241	0x3e49a44a	0.19691578
242	0xbe23778f	-0.15963577
243	0xbb41ab42	-0.002955154
244	0x3ddc5037	0.10757487
245	0x3d6b568b	0.05745558
246	0x3dd1668e	0.10224639
247	0xbc2fcd08	-0.010730036
248	0x3d799063	0.060928714
249	0x3d9e74d1	0.07737125
250	0x3db711f8	0.08938974
251	0xbe0a08e3	-0.13479953
252	0xbe2f3567	-0.17110215
253	0xbceb76bf	-0.028743146
254	0x3d8babb8	0.06819862
255	0x3a9bcab3	0.0011885971

network_body._body_endoder.seq_layers.2.bias f4 [128]
0	0x39b570c1	0.00034607018
1	0x3a1cc49c	0.0005980225
2	0xba1fbc76	-0.00060934515
3	0x3a86d9d0	0.0010288302
4	0x3a46f47f	0.00075895333
5	0x372eac90	1.0411386e-05
6	0x3a3beaeb	0.00071684894
7	0x3a7f7e9c	0.00097463443
8	0x388e13e1	6.7747904e-05
9	0xb9afe07f	-0.00033545864
10	0x3972936d	0.00023133839
11	0xb9ee6d17	-0.00045476176
12	0x3946ba8f	0.0001895225
13	0xba8e3c4f	-0.0010851714
14	0x39345803	0.00017198925
15	0x38a9276f	8.065893e-05
16	0xb9344f25	-0.00017195621
17	0x39bcbf00	0.0003600046
18	0x3a24f46a	0.0006292524
19	0x39f679ac	0.0004701143
20	0xb98b3ad8	-0.00026555988
21	0xba862240	-0.0010233596
22	0x39829905	0.0002490954
23	0x3981a2f6	0.00024726213
24	0x39263107	0.00015849258
25	0xb91945a2	-0.00014617157
26	0xba820966	-0.0009921014
27	0xba0fa65b	-0.0005479806
28	0x3a6ad397	0.0008957921
29	0x3a02b543	0.00049861165
30	0xba632fb3	-0.00086664705
31	0xb927dbe4	-0.00016008277
32	0xb9ac7947	-0.00032896755
33	0xb91be0df	-0.00014865723
34	0xb987530f	-0.0002581109
35	0x37fdd6a5	3.0259902e-05
36	0xb8837b57	-6.2695406e-05
37	0xb8b638e6	-8.6890344e-05
38	0x3a86e05c	0.0010290253
39	0x393cc9db	0.00018004274
40	0x3991bc98	0.00027797068
41	0x3863868f	5.4246335e-05
42	0x399b4499	0.00029615013
43	0x39af1b0a	0.00033398747
44	0xba194b08	-0.00058476673
45	0x3a87f9c3	0.0010374117
46	0xb97ee7d1	-0.00024309686
47	0x3a5997eb	0.00083005306
48	0xba75e44c	-0.0009380027
49	0xb997821c	-0.00028897903
50	0x39385b7d	0.0001758169
51	0x3a5689e0	0.0008183997
52	0x393927c0	0.00017657783
53	0x37d51175	2.5399708e-05
54	0x3926d85a	0.00015911591
55	0xba415625	-0.0007375202
56	0xba2de156	-0.0006633004
57	0x3a881e4e	0.0010385008
58	0x38c3e4b9	9.3409275e-05
59	0x3a685585	0.0008862841
60	0x39093590	0.00013085292
61	0x39433f15	0.00018620149
62	0x39865d88	0.00025628158
63	0xba520ef5	-0.0008013093
64	0x3a3fa87a	0.0007311177
65	0xba386817	-0.00070345536
66	0x3a8acd99	0.0010589837
67	0xb9bcc996	-0.00036008348
68	0x39a223e9	0.00030925803
69	0x397cc9ca	0.00024107765
70	0x392b242a	0.00016321303
71	0x3a3661da	0.000695733
72	0xb9def971	-0.00042528988
73	0x39f03754	0.0004581759
74	0xba18c176	-0.0005827168
75	0x3a3c8884	0.0007191973
76	0xb8c721e3	-9.495371e-05
77	0x3a7cf850	0.00096500386
78	0x39e7d056	0.00044214976
79	0xb9d9ad07	-0.0004151838
80	0xb9afbd56	-0.00033519667
81	0xba36951d	-0.00069649686
82	0x3a2ed2e8	0.0006669001
83	0x3a58e153	0.0008273322
84	0x39aa0ede	0.00032436004
85	0x3860fa52	5.363889e-05
86	0x3a53d4e1	0.00080807327
87	0x3987e620	0.00025920663
88	0x388c4388	6.688299e-05
89	0xb79928b0	-1.8257968e-05
90	0x38bb5b4c	8.93386e-05
91	0x3a1c9bbe	0.0005974135
92	0x389c896b	7.464256e-05
93	0x391492fe	0.00014169139
94	0x3a262aee	0.00063387945
95	0x39ba3380	0.00035515055
96	0x398affe7	0.00026512073
97	0x3a822fa2	0.0009932409
98	0x3985ea63	0.00025542369
99	0xb9ce494b	-0.0003934599
100	0xb806ddfe	-3.2154836e-05
101	0x3a46f079	0.0007588934
102	0xb8fbec91	-0.000120126766
103	0x39dd30aa	0.00042188662
104	0xb91b5da0	-0.0001481683
105	0x3a7c9531	0.00096352684
106	0xba2d3c78	-0.0006608437
107	0xb9ae882a	-0.00033289316
108	0x3803c432	3.1415555e-05
109	0xba1fc840	-0.0006095208
110	0xb9f44ac9	-0.00046595026
111	0x39facebb	0.00047837742
112	0x38e2ea6a	0.00010820183
113	0x38bed537	9.0996204e-05
114	0xb7ed4b7d	-2.8287754e-05
115	0xb88d2137	-6.729591e-05
116	0x3904cb57	0.00012664251
117	0xb9f6f851	-0.00047105787
118	0x3938801e	0.00017595335
119	0xb9ed4251	-0.00045253572
120	0x3a15c585	0.00057133316
121	0x3a197974	0.0005854585
122	0x3a963992	0.0011461249
123	0xba784c01	-0.00094717747
124	0x3a0f33aa	0.00054627156
125	0x38e59dee	0.000109489876
126	0x38193e68	3.6536163e-05
127	0x39991e53	0.00029205027

action_model._discrete_distribution.branches.0.weight f4 [4, 128]
0	0xbb99f837	-0.004698779
1	0xbb71b826	-0.0036883443
2	0xbbe9adee	-0.0071313297
3	0x3bd7d570	0.006586723
4	0x3b89f01b	0.004209531
5	0xbae105cd	-0.0017167866
6	0xbc79f8e8	-0.015257098
7	0xbb9db26c	-0.0048125293
8	0x3b90976d	0.0044125826
9	0x3a71f1f7	0.0009229476
10	0xbc1768a2	-0.009241255
11	0xbad80584	-0.0016481136
12	0xbba37445	-0.0049882256
13	0xbbb3bbe7	-0.005485046
14	0xbb95c063	-0.0045700534
15	0xbbd1518b	-0.0063878945
16	0x3c011273	0.007877934
17	0x3c581e03	0.013190749
18	0xbb8096b6	-0.003924216
19	0x3b7baae1	0.0038401412
20	0x3af8fd14	0.0018996322
21	0xbc3a4891	-0.01136984
22	0x3b2de2d7	0.0026532912
23	0xbb5a6451	-0.0033323953
24	0x3c1f9a6a	0.009741405
25	0xbb9a2e70	-0.004705243
26	0x39f1299d	0.00045998106
27	0x3bdadc93	0.0066791265
28	0x3bd6682a	0.006543179
29	0xbba5f01a	-0.0050640227
30	0xbc8044b4	-0.01565776
31	0xbaf3de8a	-0.001860575
32	0xbb439e10	-0.0029848851
33	0x389c58b2	7.4551805e-05
34	0xbc3aed89	-0.011409172
35	0x3c9027e9	0.017597156
36	0x3ba52641	0.0050399606
37	0x3c24f10b	0.010067235
38	0xbb0255e9	-0.0019887632
39	0xbc0e2358	-0.008675419
40	0xbc1b1e4a	-0.009467671
41	0xbb5fa78c	-0.0034126965
42	0xbbcf75da	-0.0063311877
43	0x3c1cd993	0.009573358
44	0xbb551857	-0.0032515728
45	0xba40aaec	-0.0007349688
46	0xbb7df86b	-0.0038752805
47	0xbb8e0180	-0.004333675
48	0xbc10399c	-0.008802798
49	0x3bd88ddf	0.006608709
50	0x3b3a6290	0.0028440095
51	0xbaa73d1f	-0.0012759304
52	0x3b9f964d	0.004870212
53	0x3c827034	0.015922643
54	0x3b547943	0.003242091
55	0xb9a4512c	-0.00031340995
56	0xbc0b1879	-0.008489721
57	0x3b4df837	0.0031428465
58	0xbc32ee1f	-0.01092103
59	0x3c4d42f0	0.012528166
60	0xbb9485ee	-0.004532567
61	0xbbf4d410	-0.007471569
62	0x3c0a843a	0.008454377
63	0x3bb5522b	0.005533477
64	0x3bf3ef76	0.0074443175
65	0xbbadf54a	-0.0053087818
66	0x3c31e158	0.010856949
67	0x3c0bf7b0	0.00854294
68	0x3bdca49f	0.0067334916
69	0x3b705762	0.0036673178
70	0x3c7b38b3	0.015333342
71	0x3c4bedca	0.01244683
72	0xbb999dc0	-0.0046879947
73	0x39d8b948	0.00041336776
74	0xbc4a6cee	-0.012355072
75	0x3b6df3d6	0.0036308668
76	0x3b86af44	0.0041102488
77	0x3c7221cb	0.014778565
78	0xbb5cb691	-0.0033678154
79	0xbb8df724	-0.00433244
80	0xbbde92fa	-0.0067924233
81	0x3bfa7d50	0.007644333
82	0x3c101c87	0.008795864
83	0x3c890ff8	0.016731247
84	0xbbfd62e1	-0.0077327345
85	0x3be3aa1d	0.0069477693
86	0x393f42bb	0.00018240038
87	0xbc2d8334	-0.010590363
88	0x3c0c7fae	0.008575363
89	0xbb80c930	-0.0039302334
90	0x3ba324ca	0.004978751
91	0x3c9049f9	0.017613398
92	0x39dc451c	0.0004201316
93	0x3c6017f0	0.013677582
94	0xba860699	-0.0010225355
95	0x3a196f0a	0.0005853033
96	0xbafada97	-0.0019138631
97	0x3bfa6cb9	0.0076423553
98	0x3c26fd96	0.010192296
99	0x3bf18822	0.0073709646
100	0xbc6f66e5	-0.014611934
101	0xbb077e78	-0.0020674746
102	0x3c6f5686	0.014608031
103	0x3b37e7f1	0.0028061832
104	0x3c744ca0	0.014910847
105	0x3c436c31	0.01192765
106	0xbc57da93	-0.013174671
107	0xbc80a49b	-0.01570349
108	0x3b794503	0.003803552
109	0xbbfedc3c	-0.007777719
110	0xbb7ce112	-0.00385863
111	0x3caf0bdd	0.021367962
112	0x3bd323a1	0.0064434563
113	0xb896cd21	-7.1907656e-05
114	0x3c629ff9	0.013832086
115	0x3a31e1c6	0.0006785657
116	0x3b88baf6	0.004172678
117	0x399e4847	0.0003018996
118	0x3c0a47c0	0.008439958
119	0x3b538399	0.0032274483
120	0xbbc34617	-0.005959283
121	0xbba92428	-0.005161781
122	0x3b9ed21f	0.0048468257
123	0xbcd42fd4	-0.025901712
124	0x395c9dc4	0.00021039607
125	0x39ab7a28	0.00032706675
126	0xbbf09456	-0.007341902
127	0x3be904fb	0.0071111894
128	0x3bacba0c	0.005271202
129	0x3a16cf47	0.00057529326
130	0x3c9f2dcf	0.019431023
131	0xb9c0d711	-0.0003678133
132	0x3ac77306	0.0015216775
133	0x3c4b70cd	0.0124170305
134	0xbcac2509	-0.021013753
135	0xbc91d4ae	-0.017801609
136	0xbb584878	-0.003300218
137	0x3b18d2e9	0.0023319072
138	0xbc05efcb	-0.008174847
139	0x3c5e512a	0.013569156
140	0x3c4441ea	0.011978606
141	0x3c3caf21	0.011516363
142	0x3a543838	0.00080955354
143	0x3bf13012	0.0073604668
144	0x3a40d5e9	0.0007356094
145	0x3c2f1538	0.010686211
146	0xbc41b9c1	-0.011824072
147	0x3bbb3c9e	0.0057140132
148	0x3b90ddf7	0.0044209915
149	0x3c19b826	0.009382283
150	0x3b2b24c5	0.0026114446
151	0xbbab69f9	-0.005231139
152	0xb894a6ac	-7.088235e-05
153	0x3bbeb12e	0.0058194613
154	0x3bbb8000	0.005722046
155	0x3b59a11f	0.0033207608
156	0x3b5ee45b	0.0034010622
157	0xbb73f47d	-0.0037224584
158	0x3c0ef4f0	0.00872539
159	0x3c0cdf61	0.00859818
160	0xbbf01153	-0.007326284
161	0xbb128757	-0.00223585
162	0xb876b308	-5.8817706e-05
163	0xbbc5ab4e	-0.006032384
164	0xbba4f2f6	-0.005033846
165	0x3cc7c111	0.024384053
166	0xbbb47964	-0.005507635
167	0xbbf260cb	-0.0073967925
168	0x3b807090	0.0039196685
169	0xbc1991b2	-0.009373115
170	0xbc159904	-0.00913072
171	0xbc3688cd	-0.011141014
172	0x3b355b2d	0.0027672753
173	0xbba47ff8	-0.005020138
174	0x3c0d43f6	0.00862216
175	0xbc349ae3	-0.011023256
176	0x3ad2c954	0.0016081729
177	0xbb461c0c	-0.003022912
178	0xbc2a04f9	-0.010377162
179	0xbc0671e2	-0.008205863
180	0xbbdd9a5e	-0.006762787
181	0xbb416b66	-0.0029513477
182	0xbb5fe15d	-0.0034161427
183	0xbad8e2af	-0.0016547049
184	0x3c889af8	0.016675457
185	0xbc8759fb	-0.016522398
186	0xbc666569	-0.014062264
187	0xbc2f911c	-0.010715749
188	0xb8c7b9fe	-9.523703e-05
189	0x3a335d10	0.00068421755
190	0xbb2cd201	-0.002637029
191	0x3c938a93	0.018010413
192	0xbc203f47	-0.0097807115
193	0xbbaa46dc	-0.0051964354
194	0xbae33844	-0.0017335494
195	0x3b82f822	0.003996865
196	0x3b6a1840	0.003572002
197	0x3c27ebae	0.0102490615
198	0xbbf0a059	-0.0073433337
199	0xbbac5b17	-0.005259882
200	0xbbaaaa5e	-0.0052082976
201	0x3b1a72e7	0.0023567022
202	0x3bcece5c	0.006311221
203	0x3b6439c9	0.0034824482
204	0xbba3d664	-0.0049999226
205	0xbbc585fd	-0.0060279355
206	0xbc0f2f28	-0.00873927
207	0xbacd535f	-0.0015665105
208	0x3bb17d4e	0.005416549
209	0x3c02c361	0.007981152
210	0xbbd11b83	-0.0063814535
211	0x3a3b6227	0.000714811
212	0xbbbb6244	-0.0057185013
213	0xbaaf089f	-0.001335401
214	0xbc5cb35c	-0.013470497
215	0x3ca11075	0.019661168
216	0x3b453603	0.0030092008
217	0xbc9842e4	-0.018586583
218	0x3bd1f7eb	0.006407728
219	0xbc82e69e	-0.015979107
220	0xbc3924b6	-0.0113002565
221	0xbb069882	-0.002053768
222	0x3be22bdc	0.006902201
223	0xbc5d75dd	-0.01351687
224	0x3b63d71e	0.003476567
225	0xba37b54c	-0.00070079113
226	0x3c8dad5b	0.017294576
227	0xbb393b69	-0.002826417
228	0x3ab09d50	0.0013474617
229	0xbae394d8	-0.0017363084
230	0x3a49e037	0.0007700952
231	0x3ab40fcf	0.0013737621
232	0x3c694a2a	0.0142388735
233	0x3990a0e8	0.00027585705
234	0xbb2529ff	-0.0025202034
235	0x3b3aca20	0.0028501824
236	0xbc95458a	-0.018221635
237	0x3a6b74a5	0.000898192
238	0x3c8fafe9	0.017539935
239	0xbb1971c0	-0.0023413748
240	0xbb0c7349	-0.002143102
241	0x3c114ac8	0.008867927
242	0x3abab621	0.0014244952
243	0x3bfa1929	0.007632394
244	0xbc4c2def	-0.012462123
245	0xbbfe14d2	-0.007753947
246	0x3c36e470	0.011162862
247	0x3bdc174e	0.0067166453
248	0xbc46bb4f	-0.012129619
249	0xbb9dd242	-0.0048163245
250	0xbc287f10	-0.0102842
251	0x3c554511	0.013016955
252	0xbb9c3dba	-0.0047681006
253	0x3c6ce2a9	0.014458337
254	0xba580b16	-0.0008241398
255	0xbc9b906a	-0.01898976

action_model._discrete_distribution.branches.0.bias f4 [4]
0	0xb9e4ef6d	-0.00043665935
1	0x3870e1d1	5.7430767e-05
2	0x3a0f8af0	0.00054757204
3	0xb98fb1d9	-0.00027407592
